C:\Users\Tony0\anaconda3\envs\nlp_2025\python.exe E:\micro-ai-challenge\BiLSTM.py
==========================================================================================
Layer (type:depth-idx)                   Output Shape              Param #
==========================================================================================
BidirectionalDualLSTMModel               [32, 49]                  --
├─LSTM: 1-1                              [22400, 256]              153,600
├─LSTM: 1-2                              [22400, 256]              179,200
├─Sequential: 1-3                        [32, 49]                  --
│    └─Linear: 2-1                       [32, 128]                 65,664
│    └─ReLU: 2-2                         [32, 128]                 --
│    └─Dropout: 2-3                      [32, 128]                 --
│    └─Linear: 2-4                       [32, 64]                  8,256
│    └─ReLU: 2-5                         [32, 64]                  --
│    └─Dropout: 2-6                      [32, 64]                  --
│    └─Linear: 2-7                       [32, 49]                  3,185
==========================================================================================
Total params: 409,905
Trainable params: 409,905
Non-trainable params: 0
Total mult-adds (Units.TERABYTES): 1.91
==========================================================================================
Input size (MB): 6.28
Forward/backward pass size (MB): 91.81
Params size (MB): 1.64
Estimated Total Size (MB): 99.73
…
