/home/y/yuchenbo/anaconda3/envs/nlp_2025/lib/python3.11/site-packages/torch/optim/lr_scheduler.py:62: UserWarning: The verbose parameter is deprecated. Please use get_last_lr() to access the learning rate.
  warnings.warn(
==========================================================================================
Layer (type:depth-idx)                   Output Shape              Param #
==========================================================================================
BidirectionalDualLSTMWithAttention       [32, 49]                  --
├─LSTM: 1-1                              [22400, 256]              153,600
├─LSTMAttention: 1-2                     [32, 256]                 --
│    └─Linear: 2-1                       [32, 700, 128]            32,896
│    └─Tanh: 2-2                         [32, 700, 128]            --
│    └─Linear: 2-3                       [32, 700, 1]              128
├─LSTM: 1-3                              [22400, 256]              179,200
├─LSTMAttention: 1-4                     [32, 256]                 --
│    └─Linear: 2-4                       [32, 700, 128]            32,896
│    └─Tanh: 2-5                         [32, 700, 128]            --
│    └─Linear: 2-6                       [32, 700, 1]              128
├─Sequential: 1-5                        [32, 49]                  --
│    └─Linear: 2-7                       [32, 256]                 131,328
│    └─ReLU: 2-8                         [32, 256]                 --
│    └─Dropout: 2-9                      [32, 256]                 --
│    └─Linear: 2-10                      [32, 128]                 32,896
│    └─ReLU: 2-11                        [32, 128]                 --
│    └─Dropout: 2-12                     [32, 128]                 --
│    └─Linear: 2-13                      [32, 49]                  6,321
==========================================================================================
Total params: 569,393
Trainable params: 569,393
Non-trainable params: 0
Total mult-adds (Units.TERABYTES): 1.91
==========================================================================================
Input size (MB): 6.28
Forward/backward pass size (MB): 138.09
Params size (MB): 2.28
Estimated Total Size (MB): 146.65
…
