/home/y/yuchenbo/anaconda3/envs/nlp_2025/lib/python3.11/site-packages/torch/optim/lr_scheduler.py:62: UserWarning: The verbose parameter is deprecated. Please use get_last_lr() to access the learning rate.
  warnings.warn(
torch.Size([4140, 755, 20]) torch.Size([4140, 755, 45]) torch.Size([4140, 49])
==========================================================================================
Layer (type:depth-idx)                   Output Shape              Param #
==========================================================================================
BidirectionalDualLSTMModel               [32, 49]                  --
├─LSTM: 1-1                              [22400, 256]              1,734,656
├─LSTM: 1-2                              [22400, 256]              1,760,256
├─Sequential: 1-3                        [32, 49]                  --
│    └─Linear: 2-1                       [32, 512]                 262,656
│    └─ReLU: 2-2                         [32, 512]                 --
│    └─Dropout: 2-3                      [32, 512]                 --
│    └─Linear: 2-4                       [32, 256]                 131,328
│    └─ReLU: 2-5                         [32, 256]                 --
│    └─Dropout: 2-6                      [32, 256]                 --
│    └─Linear: 2-7                       [32, 49]                  12,593
==========================================================================================
Total params: 3,901,489
Trainable params: 3,901,489
Non-trainable params: 0
Total mult-adds (Units.TERABYTES): 20.04
==========================================================================================
Input size (MB): 6.28
Forward/backward pass size (MB): 91.96
Params size (MB): 15.61
Estimated Total Size (MB): 113.85
…
